cpp/Detector/puyo-mlp-gpu.onnx (onnx, 588547 bytes, 6 tensors)

fc.0.bias f4 [50]
-0.0008338834 -0.0036190308 -0.10850509 -0.10905065 -0.11981175 -0.0060409643 -0.0024835581 0.17463659
-0.0023080672 -0.0008351595 -0.008295496 -0.0025030063 -0.1645394 0.023662858 -0.0072162244 -0.008295767
0.12917905 -0.0067226994 -0.004923136 -0.007988527 -0.0054804995 -0.02066244 0.03374712 -0.12968375
-0.0011263818 -0.07869578 -0.074244566 -0.0073517524 0.08490157 -0.0021719888 -0.001565641 -0.061444126
-2.7315991e-05 0.0797763 0.18448937 0.01298905 -0.1205342 -0.018767247 -0.0031674483 -0.015829999
-0.0024139197 -0.0027931335 -0.03433629 -0.038019575 -0.004084125 -0.00371719 -0.009639694 -0.0024335324
-0.014791267 -0.033641506
00000000: f898 5aba 432d 6dbb eb37 debd f255 dfbd
00000010: dd5f f5bd 48f3 c5bb 31c3 22bb efd3 323e
00000020: f142 17bb 9bee 5aba d5e9 07bc 7a09 24bb
00000030: 047d 28be 9cd8 c13c 1476 ecbb f8ea 07bc
00000040: 8347 043e 174a dcbb 4252 a1bb 50e2 02bc
00000050: c395 b3bb 4744 a9bc 6c3a 0a3d d1cb 04be
00000060: 1aa3 93ba 412b a1bd 890d 98bd f8e6 f0bb
00000070: e0e0 ad3d ed57 0ebb 3236 cdba d6ac 7bbd
00000080: a524 e5b7 c261 a33d c8ea 3c3e 06d0 543c
00000090: a2da f6bd c5bd 99bc f794 4fbb eaad 81bc
000000a0: da32 1ebb 010d 37bb 36a4 0cbd 6aba 1bbd
000000b0: 20d4 85bb 199c 73bb cfef 1dbc e67b 1fbb
000000c0: 1257 72bc adcb 09bd

fc.0.weight f4 [50, 2880]
0.092359014 0.051371958 0.045293443 -0.057786163 -0.03849663 -0.026186598 -0.026478678 -0.032346047
0.02387615 0.10939784 0.13667837 0.03764975 -0.015207908 -0.027524779 -0.03928757 -0.0007318629
-0.03331513 -0.08398105 -0.09932974 -0.046271414 0.06359849 0.18938443 0.15619883 0.07689394
0.046012476 0.046324443 0.044430498 0.046476528 0.052155625 0.03251592 0.02737644 0.025655575
0.055645406 -0.002849307 -0.01733174 -0.15308197 -0.11685967 -0.005153736 0.060394593 0.06846997
0.10568019 0.07972267 0.10804189 0.09563645 0.06253239 0.00015236174 -0.018081227 -0.037315384
-0.09927685 -0.089726835 -0.06791393 0.030276671 0.11166501 0.17295411 0.09879767 0.06845567
0.060879137 0.056684196 0.030422257 -0.00020498267 -0.00872579 0.025602119 0.034702536 0.018581264
-0.042704407 -0.055376712 -0.015616447 -0.13290831 -0.09554045 -0.0060566943 0.09484011 0.07174993
0.08054715 0.094742164 0.08253511 0.091880366 0.09971342 -0.04508591 -0.07397876 -0.057527572
-0.0849412 -0.05976362 -0.029867252 0.06895932 0.09624258 0.1196047 0.11286712 0.09564896
0.09819832 0.09212867 0.0054498874 0.011480757 -0.021955643 -0.0051708124 0.029159235 0.02060608
0.032410134 0.108441316 0.18954344 0.0019539976 0.0024186883 0.046186578 0.04592119 0.0018910121
0.059816994 0.06955954 0.08419375 0.009114452 -0.06778327 -0.14562008 -0.14085309 -0.10822638
-0.063308716 -0.026665106 -0.07231751 0.0041673216 0.021598851 0.02712985 0.12178027 0.14383173
0.13959566 0.16966681 0.065324344 0.15732937 0.09151662 0.06884915 0.11848983 0.085993335
-0.01040858 0.10164667 0.13191785 -0.03977134 -0.031941067 -0.021122893 -0.057193395 -0.040605627
0.1291843 0.093243204 0.14767401 0.0664318 -0.09519132 -0.12079888 -0.11875206 -0.062185742
-0.004539159 -0.0011917397 -0.033167407 0.03376948 0.07490841 0.11033249 0.16768898 0.14566132
0.1283457 0.08738919 0.01555052 0.07551725 0.01547095 0.0401194 0.122147836 0.058932584
-0.119473584 -0.007021078 0.037949108 -0.015988937 0.065933794 0.04110784 -0.057763427 -0.09395557
0.097492665 0.060213394 0.12142687 0.07982808 -0.046412483 -0.09475057 -0.13408442 -0.103492334
-0.08320513 -0.06690542 -0.019651743 0.0854349 0.13472791 0.23134972 0.23688908 0.19088964
0.134855 0.081485204 0.029907424 0.10196173 0.027422447 -0.052464724 -0.014135168 -0.06021349
-0.16652492 -0.093780845 -0.09172474 -0.16280603 0.025531258 0.032591004 -0.063979216 -0.08807184
-0.0009882487 0.011325003 0.11993014 0.008919376 -0.06487692 -0.079911 -0.12947047 -0.09396442
-0.08084618 -0.08842512 0.05497078 0.1361219 0.11993214 0.27443737 0.21299827 0.11280718
0.13837901 0.06606573 0.043167014 0.11840354 0.00097561727 -0.14428109 -0.11943315 -0.13983515
-0.2067202 -0.13416594 -0.165488 -0.16263366 0.0089281695 0.0019503526 0.032967124 0.066993095
0.07188911 0.0923527 0.2020954 0.064707674 0.006493359 0.017777909 -0.039034788 0.02092983
-0.010044755 -0.0713835 0.07415572 0.11979484 0.1311876 0.2815336 0.1204726 0.05413895
0.072401665 0.04000589 0.08241587 0.13783579 0.0073409053 -0.15906182 -0.15103377 -0.20844361
00000000: b926 bd3d 676b 523d 9e85 393d 2fb1 6cbd
00000010: a4ae 1dbd 4785 d6bc d0e9 d8bc 4a7d 04bd
00000020: ea97 c33c fa0b e03d 6af5 0b3e a036 1a3d
00000030: 972a 79bc a57b e1bc 01ec 20bd 7dda 3fba
00000040: 7275 08bd 42fe abbd 646d cbbd 1887 3dbd
00000050: ed3f 823d feed 413e 96f2 1f3e 927a 9d3d
00000060: 9477 3c3d b3be 3d3d c1fc 353d 2c5e 3e3d
00000070: 23a1 553d 6a2f 053d 8e44 e03c a42b d23c
00000080: 70ec 633d 70bb 3abb 4bfb 8dbc 85c1 1cbe
00000090: 1f54 efbd ace0 a8bb 5260 773d fc39 8c3d
000000a0: db6e d83d a445 a33d 1145 dd3d 0bdd c33d
000000b0: fb10 803d 4bc3 1f39 151f 94bc 04d8 18bd
000000c0: a951 cbbd b4c2 b7bd 7516 8bbd c806 f83c
000000d0: a0b0 e43d e21a 313e 6f56 ca3d 7c32 8c3d
000000e0: 675c 793d b02d 683d 1938 f93c 9ef0 56b9
000000f0: 9ef6 0ebc 89bb d13c 3f24 0e3d bc37 983c
00000100: d1ea 2ebd b1d2 62bd 20dc 7fbc 1e19 08be
00000110: b6aa c3bd 3c77 c6bb 883b c23d a1f1 923d
00000120: e7f5 a43d 2e08 c23d 2b08 a93d c62b bc3d
00000130: 8d36 cc3d 01ac 38bd 2d82 97bd 08a2 6bbd
00000140: a7f5 adbd b3ca 74bd 2bac f4bc 8b3a 8d3d
00000150: d41a c53d 4ff3 f43d e026 e73d 9ae3 c33d
00000160: 331c c93d f5ad bc3d f894 b23b c919 3c3c
00000170: 52dc b3bc eb6f a9bb 59df ee3c 15ce a83c
00000180: 7dc0 043d 7b16 de3d ad17 423e a40e 003b
00000190: db82 1e3b 232e 3d3d dc17 3c3d d6db f73a
000001a0: aa02 753d 3b75 8e3d c66d ac3d c854 153c
000001b0: f4d1 8abd 6e1d 15be cb3b 10be cba5 ddbd
000001c0: 00a8 81bd c870 dabc 341b 94bd 078e 883b
000001d0: 13f0 b03c 6b3f de3c ef67 f93d a048 133e
000001e0: 2af2 0e3e 23bd 2d3e c5c8 853d f31a 213e
000001f0: 116d bb3d c800 8d3d ccaa f23d 461d b03d
00000200: c088 2abc 212c d03d 7915 073e 46e7 22bd
00000210: a3d4 02bd eb09 adbc 9f43 6abd 1652 26bd
00000220: e448 043e 4bf6 be3d db37 173e 650d 883d
00000230: abf3 c2bd 6765 f7bd 4834 f3bd 7ab6 7ebd
00000240: 3abd 94bb 2634 9cba 8cda 07bd de51 0a3d
00000250: 9569 993d 00f6 e13d a9b6 2b3e 3e28 153e
00000260: 0e6d 033e 1bf9 b23d 9cc7 7e3c caa8 9a3d
00000270: de79 7d3c 3d54 243d a528 fa3d 4b63 713d
00000280: 91ae f4bd 1211 e6bb 8670 1b3d 3bfb 82bc
00000290: 4c08 873d b260 283d 5899 6cbd c76b c0bd
000002a0: 3caa c73d 52a2 763d a7ae f83d e87c a33d
000002b0: 041b 3ebd 960c c2bd 6d4d 09be caf3 d3bd
000002c0: 7467 aabd b505 89bd b1fc a0bc 7ef8 ae3d
000002d0: 1df6 093e f1e6 6c3e 0d93 723e 9378 433e
000002e0: 6e17 0a3e b7e1 a63d 6a00 f53c 50d1 d03d
000002f0: 0aa5 e03c 40e5 56bd 3197 67bc 6ca2 76bd
00000300: 8285 2abe 2c10 c0bd 2eda bbbd a0b6 26be
00000310: ee26 d13c 257e 053d 8907 83bd 025f b4bd
00000320: 2088 81ba 818c 393c ef9d f53d 9322 123c
00000330: 31de 84bd 61a8 a3bd e893 04be 6b70 c0bd
00000340: af92 a5bd 3b18 b5bd 0a29 613d 8a63 0b3e
00000350: fb9e f53d 0e83 8c3e 381c 5a3e 7307 e73d
00000360: 3ab3 0d3e 784d 873d e5cf 303d 8e7d f23d
00000370: 91c0 7f3a 6cbe 13be 5e99 f4bd f230 0fbe
00000380: 76ae 53be cc62 09be b075 29be 7089 26be
00000390: 7547 123c f9a2 ff3a 8908 073d ad33 893d
000003a0: 993a 933d 6a23 bd3d 19f2 4e3e 7585 843d
000003b0: 3ec6 d43b faa2 913c f1e2 1fbd 0975 ab3c
000003c0: c292 24bc 8331 92bd f4de 973d ff56 f53d
000003d0: 0b56 063e 2c25 903e 57ba f63d cec0 5d3d
000003e0: 5347 943d 37dd 233d a7c9 a83d d324 0d3e
000003f0: fa8b f03b 1ae1 22be 99a8 1abe 3e72 55be

fc.2.bias f4 [50]
-0.008016463 0.123830326 0.12137027 0.34849358 0.018638682 -0.1895232 0.09374928 -0.0031230717
-0.018404434 0.0029842039 -1.134121e-06 -0.0959246 0.031991906 -0.06992112 -0.028298711 0.010507347
2.4317102e-12 0.0005968328 -0.054906286 0.058675636 -0.045778666 0.106223896 -0.00017257205 -0.21836914
0.29363704 0.23233217 -0.1555228 0.110483155 0.17014542 -0.071125604 0.049215842 -0.12072415
-0.06252138 -0.12918039 3.0084212e-07 -0.19211254 -9.542316e-05 7.648656e-06 -5.6368567e-08 -0.21144873
-0.13601567 -0.048171666 0.004318377 -0.10303586 0.009611201 -1.5747217e-07 0.034205414 -0.01819304
-0.09001634 -6.965823e-06
00000000: 7c57 03bc c19a fd3d fa90 f83d c06d b23e
00000010: 26b0 983c 5f12 42be 9fff bf3d 73ac 4cbb
00000020: e5c4 96bc a292 433b 1a38 98b5 1e74 c4bd
00000030: f209 033d ce32 8fbd b3d2 e7bc 0227 2c3c
00000040: cc1d 2b2c c574 1c3a 6ae5 60bd dd55 703d
00000050: 6982 3bbd ea8b d93d 75f4 34b9 299c 5fbe
00000060: 9857 963e 7ce8 6d3e 5e41 1fbe fe44 e23d
00000070: 9a3a 2e3e 4daa 91bd 8d96 493d 393e f7bd
00000080: 360b 80bd dd47 04be 6d83 a134 26b9 44be
00000090: eb1d c8b8 ba52 0037 e519 72b3 0486 58be
000000a0: b147 0bbe a74f 45bd 2c81 8d3b 7704 d3bd
000000b0: 4c78 1d3c 9f15 29b4 fa1a 0c3d 9209 95bc
000000c0: 7d5a b8bd f7bb e9b6

fc.2.weight f4 [50, 50]
-0.003652037 0.0064784675 -0.0107656345 0.18200651 0.056973383 0.00075297285 0.002051393 -0.28890333
0.024717003 0.018537475 0.080339745 0.00063451723 -0.04664598 0.05966243 0.05284042 -0.010943296
-0.19368502 0.05987223 0.10125067 0.029375557 -0.067352794 0.009793765 0.045011643 -0.114363536
0.024696168 0.1800488 0.09700659 0.03353776 -0.15513468 0.024009947 0.011614981 -0.022302387
6.5074004e-05 0.116492935 -0.17526169 -0.03063861 0.13430788 0.009814079 0.0030577972 0.0825588
0.037289307 0.060198955 -0.07469727 -0.08973663 -0.0018304965 0.048490316 0.060800202 -0.0031673939
0.12634206 -0.0054028695 0.17321114 0.022858331 0.0043841023 0.17508207 0.11029094 0.00084626675
-0.013438135 0.21688364 -0.002010654 0.019193027 0.0008083659 0.094433784 0.075137004 -0.17126027
-0.08187974 -0.030545497 0.019417636 -0.1642158 0.08543097 0.019581432 0.02801939 -0.15890814
-0.00023119156 -0.042131267 0.0632135 -0.15777755 0.024687316 0.030002171 0.17517115 -0.0887153
0.03493872 0.03917996 0.0205234 -0.032972466 0.075001895 -0.16318928 0.1795606 0.03615443
0.016166251 0.03436884 -0.04846282 0.062361978 -0.41562963 -0.24976964 0.025228566 0.022917194
-0.043297827 -0.05312953 -0.017572865 -0.007283558 0.34481567 -0.01705646 0.04883371 0.29086223
-0.058067698 -0.03268919 0.07768823 0.18805474 0.024733929 0.035269037 -0.0054949373 0.0009425612
0.14853394 -0.3824776 0.06096835 -0.066353984 0.17593746 0.08224314 -0.03927439 -0.06804258
-0.011375954 0.18650606 0.008353465 -0.045550082 0.0043885983 -0.28434366 0.20357244 -0.12678774
-0.023022579 0.0024007352 0.0027327545 -0.1816696 -0.044956952 0.034368094 -0.25454438 0.045698564
0.22449514 -0.006941723 -0.06297727 0.0040774792 0.03570109 0.0032525552 -0.44852024 -0.3252402
-0.061845005 0.046293303 0.009509772 0.06813474 -0.038542856 0.07081149 -0.81454843 -0.007076332
-0.0077818693 -0.30031484 -0.030596908 0.023954755 -0.07035011 0.22908221 0.077487454 0.0054316223
-0.0068913973 0.11434593 -0.02316184 -0.065584 0.14874937 0.090945564 0.10522237 0.081642576
-0.118103236 0.016879113 0.01840683 -0.0629001 0.14925523 -0.4403996 0.046773333 -0.287008
-0.20388126 0.02804351 0.052108135 -0.054751243 0.010888802 -0.2448186 0.0045142556 0.2080577
-0.1468406 -0.004988201 -0.023040678 -0.04286727 0.033702727 0.12564418 0.057662394 -0.06038585
-0.13943857 0.38158497 -0.042644594 -0.009511521 0.13448018 0.020877631 -0.043007284 -0.16836566
-0.6089608 -0.018420685 -0.26091132 -0.13008411 -0.18736683 -0.00053706 0.046667676 -0.016331745
0.035705928 0.02726369 0.013228702 0.008262935 -0.25273988 -0.15654857 -0.06811247 0.16799274
0.07054963 -0.15008111 -0.07223756 0.030969406 -0.059572637 -0.16653644 -0.08843315 0.2511359
-0.056898754 -0.18351209 -0.16493134 0.04315695 -0.45336306 0.031125933 -0.0038639882 -0.58116734
0.01727945 0.17898814 0.31709617 -0.11547882 -0.52259046 -0.041519925 -3.6935184e-05 0.030088203
0.09728354 0.11648647 0.22411482 0.22314242 -0.008735489 0.09511539 -0.054193836 -0.0061335466
-0.04492851 0.013237111 0.49882925 0.0008334487 0.12131107 0.38533404 0.009582102 0.008818559
00000000: 0357 6fbb 5349 d43b 5862 30bc ea5f 3a3e
00000010: ec5c 693d 2763 453a aa70 063b 23eb 93be
00000020: 507b ca3c e7db 973c 2a89 a43d bb55 263a
00000030: db0f 3fbd 9860 743d 326f 583d 834b 33bc
00000040: 5e55 46be 953c 753d 835c cf3d 02a5 f03c
00000050: 43f0 89bd 0776 203c 215e 383d 6e37 eabd
00000060: 9e4f ca3c b65e 383e 64ab c63d e45e 093d
00000070: a0db 1ebe 82b0 c43c c34c 3e3c 7fb3 b6bc
00000080: 5778 8838 d993 ee3d cd77 33be d2fd fabc
00000090: 0188 093e 3bcb 203c 5365 483b 9714 a93d
000000a0: acbc 183d 2e93 763d e2fa 98bd d7c7 b7bd
000000b0: 45ed efba c89d 463d a209 793d 0d94 4fbb
000000c0: d05f 013e 8e0a b1bb 435e 313e 6541 bb3c
000000d0: 84a8 8f3b b748 333e 37e0 e13d 00d8 5d3a
000000e0: a02b 5cbc bf16 5e3e 2dc5 03bb b23a 9d3c
000000f0: 84e8 533a 8066 c13d 6ee1 993d da5e 2fbe
00000100: 91b0 a7bd 8d3a fabc bc11 9f3c 3028 28be
00000110: 6ff6 ae3d 3d69 a03c eb88 e53c d1b8 22be
00000120: 036c 72b9 d691 2cbd 1476 813d 7090 21be
00000130: 0e3d ca3c 1dc7 f53c 1160 333e 5eb0 b5bd
00000140: e71b 0f3d 2a7b 203d b020 a83c 230e 07bd
00000150: 989a 993d 171b 27be bcde 373e ab16 143d
00000160: 166f 843c 57c6 0c3d f380 46bd 466f 7f3d
00000170: 68cd d4be 9dc3 7fbe 23ac ce3c d7bc bb3c
00000180: 1059 31bd 5a9e 59bd f8f4 8fbc eaaa eebb
00000190: ae8b b03e fdb9 8bbc db05 483d e5eb 943e
000001a0: 65d8 6dbd 1ae5 05bd 021b 9f3d 6c91 403e
000001b0: cf9e ca3c 4476 103d e00e b4bb 3616 773a
000001c0: 4819 183e 1bd4 c3be f3b9 793d 99e4 87bd
000001d0: f328 343e 176f a83d 2fde 20bd e859 8bbd
000001e0: 3662 3abc 72fb 3e3e f9dc 083c b992 3abd
000001f0: 3bce 8f3b 7e95 91be 4b75 503e a5d4 01be
00000200: d999 bcbc a755 1d3b 0318 333b 9807 3abe
00000210: c824 38bd 8fc5 0c3d a453 82be 6b2e 3b3d
00000220: 0ee2 653e 6577 e3bb 3afa 80bd 609c 853b
00000230: 4e3b 123d d228 553b 72a4 e5be e285 a6be
00000240: 3051 7dbd 0c9e 3d3d e0ce 1b3c 3a8a 8b3d
00000250: 1ddf 1dbd 9d05 913d 3f86 50bf 93e0 e7bb
00000260: 0dff febb dec2 99be 5ea6 fabc c33c c43c
00000270: b813 90bd 8794 6a3e beb1 9e3d c0fb b13b
00000280: 3bd1 e1bb 332e ea3d e6bd bdbc e750 86bd
00000290: c151 183e ab41 ba3d d37e d73d 3934 a73d
000002a0: 1ce0 f1bd 1146 8a3c ecc9 963c c5d1 80bd
000002b0: 5dd6 183e 0e7c e1be 6595 3f3d b6f2 92be
000002c0: 40c6 50be 81bb e53c 576f 553d d742 60bd
000002d0: f266 323c bab1 7abe 52ec 933b 140d 553e
000002e0: 625d 16be 1074 a3bb cebf bcbc 9795 2fbd
000002f0: df0b 0a3d dea8 003e 672f 6c3d 2757 77bd
00000300: fcc8 0ebe 1b5f c33e 19ac 2ebd 36d6 1bbc
00000310: 2cb5 093e 9107 ab3c 6828 30bd 0c68 2cbe
00000320: dbe4 1bbf fae6 96bc 2b96 85be c534 05be
00000330: 17dd 3fbe 7dc9 0cba 9b26 3f3d 27ca 85bc
00000340: 6140 123d 1a58 df3c 33bd 583c 4361 073c
00000350: 1f67 81be 454e 20be 8d7e 8bbd 4a06 2c3e
00000360: 537c 903d ddae 19be 49f1 93bd 8db3 fd3c
00000370: 7002 74bd 8788 2abe 701c b5bd e294 803e
00000380: ab0e 69bd 98ea 3bbe c3e3 28be 58c5 303d
00000390: 341f e8be d0fb fe3c f73a 7dbb 62c7 14bf
000003a0: a28d 8d3c ab48 373e 6e5a a23e 2980 ecbd
000003b0: 7dc8 05bf cc10 2abd daea 1ab8 897b f63c
000003c0: 983c c73d 7590 ee3d 5b7e 653e 727f 643e
000003d0: 4c1f 0fbc dccb c23d 5bfa 5dbd ebfb c8bb
000003e0: f506 38bd 78e0 583c 8c66 ff3e cc7b 5a3a
000003f0: f071 f83d 814a c53e 40fe 1c3c b87b 103c

fc.4.bias f4 [7]
-0.23920031 0.9581754 -0.07940423 -0.03875154 0.040230043 -0.21597826 -0.19573666
00000000: edf0 74be fc4a 753f af9e a2bd efb9 1ebd
00000010: 42c8 243d 6829 5dbe 316f 48be

fc.4.weight f4 [7, 50]
0.035013095 0.16355078 0.15852335 -0.02564478 -0.00032615915 0.2842515 0.15289988 0.019354513
0.059092008 -0.18921869 0.025976978 0.1461922 -0.26851442 0.078459 0.07731991 -0.087684415
0.0024916253 0.18440896 0.028853443 0.0123020895 -0.039845392 -0.0133521175 -0.0053828233 0.13199446
-0.07529631 -0.42821553 -0.3233072 -0.29648396 -0.05640516 0.059103534 0.042656373 0.16855355
0.13342889 -0.2961847 -0.031190393 0.1622722 -0.06937003 0.015925117 1.3054681e-07 0.06411975
0.060827002 -0.34819484 0.004712239 0.14233299 -0.13491626 0.0025622477 -0.0884706 -0.036827005
0.13346341 0.0051389965 0.32269168 0.14807265 0.14868626 0.16441655 -0.23124428 -0.0054914705
0.13747972 0.034556244 0.017989041 0.27937326 1.8028908e-05 -0.08320166 0.26807708 -0.004766334
0.09132486 0.21765272 0.003830447 0.15183277 0.09723396 0.01828213 -0.16528994 0.19998534
-0.006358313 -0.10998999 0.26239157 0.23432627 -0.22260338 0.11537758 0.26573575 -0.14217766
0.08812034 -0.021996427 0.0707516 -0.38551262 -0.023971071 -0.07983311 0.07833293 0.024812639
-4.3552835e-14 -0.04465753 -0.10445202 -0.22833458 0.10040162 -0.124120906 0.015963115 1.3290754e-06
0.06560615 -0.14992721 -0.18532054 -8.992621e-06 0.0016575425 0.13464767 -0.07399422 -0.3557707
-0.0033180679 -0.03701867 -0.11703991 -0.011235633 -0.10924257 -0.04776894 0.0002775234 -0.017396957
-5.1127092e-05 -0.014785794 -0.012278584 -0.079472296 -0.055011872 0.015908282 0.14957632 0.01011942
-0.07637862 -0.122643605 0.018843196 0.1301441 0.06574492 -0.09077088 -0.42010182 0.035179432
-0.14550869 0.11987788 0.055960402 -0.0059783827 -0.04287481 -0.21455348 0.09400463 -0.0072260965
-0.08646776 0.0392999 -8.723774e-05 0.16648492 0.06780016 -0.12043572 -0.013121616 0.20251013
-0.08930153 0.029858585 -0.14164633 -0.0039427965 0.085866824 0.015220757 -0.046608306 0.001651988
0.007174991 0.14671434 -0.14983904 0.050696407 -0.0211482 0.019803002 0.008864307 0.013233192
0.0092679355 -0.1055224 -0.02918557 0.18053256 0.07445189 0.07339953 1.1597991e-09 -0.002397435
-0.07172884 -0.12166772 -0.36395693 0.1276277 -0.010422673 -0.30832848 0.01745653 -0.1990005
0.28849798 -0.13140363 0.011871569 -0.086977966 -0.27821863 0.2652724 -0.19131081 -0.23395908
-0.037570786 0.20847695 -0.12751213 0.000999929 1.3922884e-06 0.59332603 0.067635745 -0.13178715
-0.09249403 -0.608745 -0.061886013 0.00042761254 -0.04097726 0.15363327 -0.0032301026 0.015893688
0.009295614 -0.029214805 -0.017313113 0.050833225 0.13296595 -0.2572334 -0.021023238 0.09044954
0.033240903 -0.00015846912 7.800976e-19 0.14197119 -3.233413e-05 -0.0014145 -0.035816204 -0.00062910886
-1.6613358e-08 1.3550242e-06 -0.30098638 0.03911575 0.17079458 -0.23745279 -2.6000447e-17 -0.025198702
0.05619181 0.09547515 -0.02606586 -0.21073112 0.07444134 -0.09740171 0.017084805 -1.7481357e-08
-0.38838705 0.16727416 -1.63335e-40 -0.009306992 1.04690745e-13 5.8032e-41 2.22851e-40 0.094573416
-0.0053054197 0.17268963 -1.7505155e-05 -0.08278542 0.11724035 3.296672e-29 0.08157436 -0.37292168
-0.05751471 4.29384e-40 0.009128161 0.11749047 -0.09711395 -0.1927503 -0.015606768 0.109132774
00000000: e469 0f3d db79 273e f253 223e 0015 d2bc
00000010: 5700 abb9 6a89 913e c991 1c3e 5b8d 9e3c
00000020: 760a 723d 8bc2 41be accd d43c 68b3 153e
00000030: b97a 89be 1daf a03d e759 9e3d e393 b3bd
00000040: 894a 233b b4d5 3c3e 0e5e ec3c b48e 493c
00000050: ec34 23bd d7c2 5abc 6562 b0bb 8e29 073e
00000060: f434 9abd 113f dbbe 8588 a5be bfcc 97be
00000070: 1909 67bd 8c16 723d 73b8 2e3d 4d99 2c3e
00000080: 95a1 083e 85a5 97be ff82 ffbc af2a 263e
00000090: e011 8ebd 6475 823c 6f2c 0c34 3751 833d
000000a0: bc25 793d 9846 b2be 2069 9a3b bdbf 113e
000000b0: 7d27 0abe 62eb 273b 1330 b5bd ead7 16bd
000000c0: a2aa 083e 0765 a83b d837 a53e 5ba0 173e
000000d0: 3641 183e d05c 283e 4dcb 6cbe cbf1 b3bb
000000e0: 7cc7 0c3e d98a 0d3d c15d 933c 030a 8f3e
000000f0: c93c 9737 a265 aabd 6641 893e e82e 9cbb
00000100: 8708 bb3d 5be0 5e3e 3d08 7b3b 0d7a 1b3e
00000110: 9922 c73d 68c4 953c c441 29be f5c8 4c3e
00000120: 6559 d0bb 6f42 e1bd 3058 863e 3af3 6f3e
00000130: 24f2 63be 154b ec3d 840e 883e 0597 11be
00000140: 7078 b43d da31 b4bc 37e6 903d e961 c5be
00000150: fb5e c4bc 8b7f a3bd 046d a03d e043 cb3c
00000160: 0025 44a9 d0ea 36bd f1ea d5bd 8ad0 69be
00000170: 5d9f cd3d 1a33 febd 14c5 823c af62 b235
00000180: 845c 863d 8586 19be abc4 3dbe 03df 16b7
00000190: e641 d93a 14e1 093e 488a 97bd 9427 b6be
000001a0: f173 59bb e4a0 17bd 9fb2 efbd a915 38bc
000001b0: 92ba dfbd 5da9 43bd 8f80 9139 1084 8ebc
000001c0: 4c71 56b8 1d40 72bc 1d2c 49bc 5fc2 a2bd
000001d0: 2154 61bd 1652 823c 892a 193e eccb 253c
000001e0: 656c 9cbd 922c fbbd 0c5d 9a3c 7f44 053e
000001f0: 46a5 863d 15e6 b9bd 9617 d7be 4f18 103d
00000200: 3b00 15be 8982 f53d bc36 653d 4fe6 c3bb
00000210: 7f9d 2fbd e8b3 5bbe 8085 c03d e4c8 ecbb
00000220: 0216 b1bd eff8 203d 68f3 b6b8 067b 2a3e
00000230: cfda 8a3d 01a7 f6bd 0cfc 56bc d15e 4f3e
00000240: b8e3 b6bd fe99 f43c bc0b 11be 9332 81bb
00000250: f2da af3d 7b60 793c 5ae8 3ebd 8587 d83a
00000260: 301c eb3b 493c 163e 686f 19be 09a7 4f3d
00000270: fd3e adbc e839 a23c 993b 113c 08d0 583c
00000280: 8ad8 173c 211c d8bd 9416 efbc 87dd 383e
00000290: 3c7a 983d 7e52 963d ce66 9f30 491e 1dbb
000002a0: 92e6 92bd ed2c f9bd 9058 babe d6b0 023e
000002b0: dcc3 2abc 3bdd 9dbe ff00 8f3c c9c6 4bbe
000002c0: 02b6 933e ac8e 06be f880 423c 8121 b2bd
000002d0: ac72 8ebe c9d1 873e fbe6 43be f892 6fbe
000002e0: d3e3 19bd fb7a 553e 8a92 02be 0d10 833a
000002f0: aade ba35 37e4 173f 9c84 8a3d 36f3 06be
00000300: 836d bdbd b6d6 1bbf 307c 7dbd 2f31 e039
00000310: c5d7 27bd 0a52 1d3e 21b0 53bb 7b33 823c
00000320: a24c 183c e353 efbc 3bd4 8dbc 8036 503d
00000330: 3a28 083e 19b4 83be ed38 acbc 9c3d b93d
00000340: 9d27 083d bb2a 26b9 823e 6621 e560 113e
00000350: 829e 07b8 be66 b9ba 03b4 12bd c8ea 24ba
00000360: 29b5 8eb2 47de b535 e31a 9abe d637 203d
00000370: c6e4 2e3e d326 73be d2cf efa3 826d cebc
00000380: 6229 663d 7a88 c33d 1288 d5bc e6c9 57be
00000390: b474 983d 8c7a c7bd 6ff5 8b3c e929 96b2
000003a0: abda c6be eb49 2b3e 50c7 0180 5b7c 18bc
000003b0: 1bbe eb29 c5a1 0000 386d 0200 b5af c13d
000003c0: 16d9 adbb 8dd5 303e 09d8 92b7 678b a9bd
000003d0: b51b f03d 4029 2710 7510 a73d 97ef bebe
000003e0: 8b94 6bbd f3ac 0400 488e 153c d89e f03d
000003f0: aee3 c6bd 5660 45be 88b3 7fbc 0181 df3d
