puyo-classifier.pt (torch_old, 104858 bytes, 6 tensors)

conv.0.weight f4 [32, 3, 3, 3]
-0.123230554 -0.20201649 -0.03500446 0.034334097 -0.13236965 -0.1829865 0.13613923 -0.06263772
0.054912973 -0.12502967 0.11643599 -0.12812369 -0.07879208 0.10998614 -0.08922526 -0.11735617
-0.13408852 -0.17533168 0.04522639 0.01592171 -0.08578952 0.080511354 0.115479365 0.07992534
0.054844778 0.19151555 -0.039658852 0.07694029 0.08415568 0.026563285 -0.07745388 0.13152729
0.14312088 0.12498004 -0.07831487 -0.07152773 0.06473277 0.1952003 0.1780432 0.16110079
-0.04180522 0.08375985 -0.04965914 0.22368348 0.14646554 0.05057141 0.038415287 -0.16287033
-0.1545991 0.09807181 -0.22237878 0.14915024 -0.026625145 0.022820612 0.13451283 -0.06964186
0.16916011 -0.12632269 0.052127793 0.06305477 0.046983715 -0.08278794 0.18533449 -0.09259003
-0.08614599 -0.119081035 0.034587096 0.10379103 -0.085996464 0.13477986 0.08849542 -0.022610484
0.14200838 -0.13762859 -0.17933963 -0.08668506 -0.20945144 -0.029263236 -0.16312154 -0.13114788
-0.16987397 0.115932256 -0.0115586575 0.1410794 0.06752226 0.21547258 0.11731121 -0.0062248665
0.15928234 0.03775295 0.074298985 -0.18956245 -0.06498301 -0.14198141 -0.16889228 -0.080072485
0.04369929 -0.2389544 0.01837722 0.017558387 0.006962826 -0.10164153 0.13426739 -0.10722341
0.015722135 0.014444906 0.010631252 0.14427179 0.21229805 0.08252163 0.19678633 0.13604118
0.12226788 0.18176435 0.016201135 -0.020280853 -0.11530289 0.07275978 -0.0944376 0.0033021995
-0.0015321168 0.030191185 -0.104544185 -0.17203222 0.10229973 0.16272518 -0.11599254 -0.04602905
0.062805444 -0.079223126 0.1359976 -0.15556885 -0.18515095 -0.06879239 -0.054899916 -0.023695914
0.052512813 -0.0027961896 0.06076487 0.021560233 -0.13800699 0.07292382 0.036950294 -0.13906142
0.100013 -0.17867361 -0.08337567 -0.08540554 -0.11224125 -0.055735804 -0.057582323 0.10678501
0.13544898 0.14361443 0.19662346 -0.010208253 0.008385751 -0.00841991 0.16903988 0.049465973
-0.062199123 -0.08014618 -0.0053518903 -0.1869651 -0.20074299 0.0061882418 -0.010236744 0.14190206
-0.13818115 -0.022630474 -0.04778376 0.1284685 0.1582559 -0.039239295 -0.121874884 -0.074654125
0.112744406 0.047737047 0.141626 0.04243091 0.16320033 0.045616 0.13644938 -0.095126286
0.11589188 0.018735442 -0.05334425 -0.15052208 0.12704715 -0.1540898 -0.08654265 -0.07576841
0.06981549 -0.026442822 0.060264826 0.00087959674 0.157387 -0.09841034 0.13011569 -0.115639634
-0.16509883 0.004115025 -0.13817851 0.1394402 0.16814363 -0.14798568 -0.07534988 0.16694878
0.22255619 0.02753015 0.23659259 -0.13734995 0.18181153 -0.10699263 -0.12838008 -0.12584761
-0.17025432 -0.1624017 0.046932485 0.17202893 -0.10602991 0.0061780135 0.00053678214 0.17351295
-0.052974243 0.10559332 -0.11305622 0.10441624 -0.008468428 -0.1551685 -0.0013282809 0.04224959
-0.15325609 -0.04724482 0.17391177 0.17358965 0.108366586 0.081887655 0.01594168 -0.14468658
0.040367436 -0.13593395 0.07965411 0.030949108 -0.009958818 0.050544824 0.12490662 -0.05440734
-0.049491204 0.2097364 -0.02563413 0.16361162 -0.10092215 -0.2424193 -0.17848389 -0.074334964
00000000: 4d60 fcbd 69dd 4ebe d660 0fbd e9a1 0c3d
00000010: e98b 07be d060 3bbe 1568 0b3e 3448 80bd
00000020: 6dec 603d c707 00be fe75 ee3d db32 03be
00000030: be5d a1bd 6a40 e13d bcbb b6bd 6f58 f0bd
00000040: 804e 09be 268a 33be 4f3f 393d 3f6e 823c
00000050: 6ab2 afbd 23e3 a43d 7280 ec3d e6af a33d
00000060: eba4 603d a71c 443e 5271 22bd df92 9d3d
00000070: d059 ac3d 3f9b d93c 24a0 9ebd 17af 063e
00000080: 488e 123e 89f5 ff3d 8c63 a0bd 217d 92bd
00000090: 9d92 843d 96e2 473e f550 363e 9bf7 243e
000000a0: f33b 2bbd 498a ab3d 6267 4bbd 480d 653e
000000b0: 10fb 153e f823 4f3d 5959 1d3d 7bc7 26be
000000c0: 3a4f 1ebe e0d9 c83d 43b7 63be d7ba 183e
000000d0: fa1c dabc 4bf2 ba3c bbbd 093e 64a0 8ebd
000000e0: 4f38 2d3e bc5a 01be f483 553d dc22 813d
000000f0: ff71 403d b98c a9bd 53c8 3d3e d79f bdbd
00000100: 4f6d b0bd c2e0 f3bd 33ab 0d3d 6490 d43d
00000110: ea1e b0bd bb03 0a3e 163d b53d 9f39 b9bc
00000120: a56a 113e 82ee 0cbe cfa4 37be f087 b1bd
00000130: 707a 56be 74b9 efbc 5509 27be a14b 06be
00000140: 71f3 2dbe e46d ed3d 8660 3dbc 1e77 103e
00000150: 1c49 8a3d d8a4 5c3e dc40 f03d f7f9 cbbb
00000160: e91a 233e d6a2 1a3d 112a 983d a91c 42be
00000170: d015 85bd 9363 11be 19f2 2cbe 0bfd a3bd
00000180: 07fe 323d 76b0 74be d38b 963c 9bd6 8f3c
00000190: 6b28 e43b 6f29 d0bd 647d 093e f297 dbbd
000001a0: b5cb 803c 54aa 6c3c b42e 2e3c fcbb 133e
000001b0: a964 593e 1a01 a93d 5b82 493e 614e 0b3e
000001c0: 9567 fa3d 6f20 3a3e 3eb8 843c 0824 a6bc
000001d0: ec23 ecbd 1403 953d 8068 c1bd b769 583b
000001e0: 4fd1 c8ba 8153 f73c 431b d6bd 3729 30be
000001f0: 8582 d13d 6ea1 263e 7f8d edbd f588 3cbd
00000200: 24a0 803d bc3f a2bd f442 0b3e 714d 1fbe
00000210: 3698 3dbe 06e3 8cbd bcde 60bd ef1d c2bc
00000220: ad17 573d 4740 37bb 96e4 783d 169f b03c
00000230: b451 0dbe 1559 953d 3159 173d 1e66 0ebe
00000240: 9ed3 cc3d 37f6 36be ddc0 aabd 1ae9 aebd
00000250: bede e5bd 3a4b 64bd 71db 6bbd 19b2 da3d
00000260: 23b3 0a3e a90f 133e a957 493e 8440 27bc
00000270: 6464 093c aaf3 09bc ca18 2d3e d59c 4a3d
00000280: 82c4 7ebd ae23 a4bd e95e afbb c773 3fbe
00000290: 928f 4dbe bcc6 ca3b 04b8 27bc c64e 113e
000002a0: 5c7f 0dbe 8b63 b9bc e7b8 43bd 3f8d 033e
000002b0: d60d 223e 62b9 20bd 8a99 f9bd 43e4 98bd
000002c0: 8ae6 e63d ec87 433d 6806 113e 09cc 2d3d
000002d0: fd1d 273e d8d7 3a3d 63b9 0b3e 92d1 c2bd
000002e0: b958 ed3d 127b 993c 807f 5abd 7622 1abe
000002f0: a618 023e b7c9 1dbe 463d b1bd 782c 9bbd
00000300: 6cfb 8e3d 9e9e d8bc 40d8 763d bd94 663a
00000310: 0f2a 213e 5c8b c9bd 0c3d 053e 79d4 ecbd
00000320: ab0f 29be 55d7 863b ab7e 0dbe 69c9 0e3e
00000330: d82d 2c3e 8f89 17be 0a51 9abd 9ff4 2a3e
00000340: c5e5 633e e986 e13c 5445 723e 77a5 0cbe
00000350: cd2c 3a3e f41e dbbd 1176 03be 32de 00be
00000360: 2657 2ebe a24c 26be 473c 403d 5a28 303e
00000370: 3626 d9bd ef70 ca3b d7b6 0c3a 61ad 313e
00000380: 85fb 58bd 5041 d83d 058a e7bd 2ed8 d53d
00000390: 29bf 0abc 7ee4 1ebe b619 aeba e80d 2d3d
000003a0: 2aef 1cbe c983 41bd ed15 323e 7cc1 313e
000003b0: 4def dd3d b7b4 a73d 2098 823c b828 14be
000003c0: 5358 253d 4532 0bbe b221 a33d fc88 fd3c
000003d0: 4f2a 23bc 1708 4f3d 0bcf ff3d 3bda 5ebd
000003e0: 4ab7 4abd 24c5 563e abfe d1bc ce89 273e
000003f0: 46b0 cebd c43c 78be 7bc4 36be ee3c 98bd

conv.0.bias f4 [32]
0.036434427 -0.13419563 0.016985817 -0.11785523 0.02282115 -0.027127 0.019216208 -0.10251451
0.17866094 -0.07047012 -0.10775046 -0.009380487 0.1477626 0.16907793 -0.07122993 0.076850004
0.15347086 -0.022839576 -0.15352063 0.115165465 0.17742158 0.017924378 0.18650934 0.030074889
0.12063428 0.16653155 0.023343157 0.010740718 0.1632615 0.14315572 0.16083932 0.0075082094
00000000: 443c 153d 946a 09be d725 8b3c 155e f1bd
00000010: 6cf3 ba3c 7139 debc 4f6b 9d3c 21f3 d1bd
00000020: e5f2 363e a352 90bd 46ac dcbd 9db0 19bc
00000030: 144f 173e c422 2d3e ffe0 91bd 8963 9d3d
00000040: 7727 1d3e 101a bbbc 8334 1dbe dfdb eb3d
00000050: 01ae 353e 25d6 923c 4efc 3e3e 9d5f f63c
00000060: 1b0f f73d 3f87 2a3e 263a bf3c d6f9 2f3c
00000070: 062e 273e 6a97 123e 10b3 243e 6d07 f63b

conv.2.weight f4 [16, 32, 3, 3]
0.052542705 -0.040131725 0.03731108 0.05098609 0.0017137666 0.017761478 0.052841634 0.027181286
-0.046300564 0.0080258595 -0.05794333 -0.0010728473 -0.0008331809 -0.061584167 0.0461272 0.020427672
0.0231688 0.039910737 -0.00870217 -0.014212526 0.047593597 0.031007877 -0.04357186 0.045702606
-0.054013796 0.022995608 -0.0016624939 -0.016261196 -0.07502318 -0.071841046 0.011824175 -0.035494197
0.021940185 -0.059290044 0.039055277 -0.07478012 0.038961817 -0.048169855 -0.009395463 -0.003762701
0.029940074 0.04531074 -0.039337777 -0.009236728 -0.05912998 0.022260355 0.02038767 -0.013840831
-0.01218296 -0.0039693504 0.02569409 -0.06336318 0.025770614 -0.06984832 0.05897929 0.0012308366
0.023208162 0.030109808 -0.022162946 -0.04488434 0.039397098 -0.00681561 0.05776144 -0.049007826
0.03722475 -0.03619882 -0.030011974 0.036243226 -0.037011195 -0.040970895 -0.0006236786 0.015353506
-0.02966033 -0.0733072 -0.04055515 -0.06222116 0.031280607 0.041102752 -0.03835416 0.007477498
-0.048539974 -0.020030774 -0.0058000237 -0.018032262 -0.058339223 -0.04557129 -0.022683335 -0.06708405
-0.037503622 -0.0584757 -0.016279668 -0.026373299 0.029969726 -0.0174506 -0.020879116 -0.013131143
0.021791613 -0.05474301 -0.056441285 0.023837818 -0.042400982 0.035220686 0.041534584 -0.0542492
0.0023684811 -0.0384555 -0.024944704 0.030601155 -0.060379304 -0.041625503 -0.0743258 0.02293841
0.015918467 0.012858548 0.01531466 -0.020950308 0.022735318 0.035531092 0.01813805 -0.007831465
-0.041207958 0.04970145 0.011888494 0.05385907 -0.039977364 -0.017543167 0.051539134 0.017355107
0.01716606 0.043185387 0.055239428 -0.03052486 -0.032866705 0.01586851 0.038146067 -0.021269767
0.007362783 0.017980888 0.041699525 0.0010460655 0.048926886 -0.04815373 0.05176814 -0.016808975
0.050422754 0.0054259673 -0.014210546 0.023998193 0.0583187 -0.038127944 0.025375115 0.043895993
0.010502547 0.0004443178 -0.057225857 0.0028359268 -0.012432629 -0.0011389572 -0.057592396 -0.060561337
-0.030393058 0.04705692 0.020459505 -0.050808605 -0.009637316 -0.06359715 0.007652968 -0.024480093
-0.02619686 -0.0590048 -0.0062143607 0.008926297 -0.00956291 0.01547693 0.0012324466 -0.041909214
-0.016855743 -0.022554297 -0.047292184 0.027409194 0.00892539 -0.05710202 0.03427003 -0.022896277
0.046002395 -0.06472438 -0.05932327 -0.023545062 -0.051571134 -0.032318782 -0.009550387 -0.016612202
0.025995051 0.008623694 0.020879153 0.07050827 0.07633424 0.040718164 -0.032930646 -0.043689936
-0.02927705 -0.048969775 -0.064836316 0.019936485 -0.063828334 -0.026205387 -0.042035654 -0.06291867
-0.060412828 0.0045886724 -0.0692931 -0.06624734 -0.015908541 -0.034828827 -0.027130138 -0.006660961
0.023305047 -0.010957202 -0.043333873 -0.011736744 -0.039318204 -0.027582156 -0.036956765 -0.06014132
0.008526085 -0.0026547033 -0.023854446 -0.0414537 0.013347187 0.0126002105 -0.03676893 -0.049270026
-0.039537102 -0.042509686 -0.01652554 0.00017050508 -0.050459776 -0.036866285 -0.06272939 -0.05854882
-0.03826205 -0.03628904 -0.03321575 -0.054402497 0.00047874503 0.029355507 -0.06713757 0.026409054
0.0028142768 0.037167486 0.007150011 -0.030650595 -0.02538764 -0.074052766 -0.06258195 -0.07025899
00000000: 0537 573d 2a61 24bd 81d3 183d cad6 503d
00000010: 77a0 e03a 8580 913c 7870 583d 4aab de3c
00000020: a9a5 3dbd e57e 033c fc55 6dbd c89e 8cba
00000030: d369 5aba ae3f 7cbd e0ef 3c3d ef57 a73c
00000040: 7fcc bd3c 7179 233d 8c93 0ebc a8db 68bc
00000050: 81f1 423d 3b04 fe3c 6878 32bd a832 3b3d
00000060: 923d 5dbd 4961 bc3c 0ae8 d9ba 3336 85bc
00000070: c1a5 99bd 6621 93bd 2fba 413c 5d62 11bd
00000080: e7bb b33c 1eda 72bd 6df8 1f3d 5226 99bd
00000090: 6d96 1f3d c14d 45bd 6eef 19bc a697 76bb
000000a0: e344 f53c c197 393d a620 21bd a555 17bc
000000b0: 4732 72bd 595b b63c 0b04 a73c a7c4 62bc
000000c0: 0a9b 47bc 5311 82bb 6a7c d23c 8ec4 81bd
000000d0: e51c d33c a30c 8fbd 4594 713d 0654 a13a
000000e0: 0b1f be3c d8a8 f63c 118f b5bc a4d8 37bd
000000f0: da5e 213d 7b55 dfbb 4297 6c3d 6ebc 48bd
00000100: fb78 183d 3745 14bd acdb f5bc c773 143d
00000110: 0d99 17bd 19d1 27bd 5d7e 23ba 468d 7b3c
00000120: 38fa f2bc 1622 96bd 281d 26bd 9ddb 7ebd
00000130: 1820 003d 5c5b 283d 4019 1dbd cd05 f53b
00000140: dad1 46bd 9417 a4bc 200e bebb 65b8 93bc
00000150: 1cf5 6ebd f6a8 3abd 67d2 b9bc 5d63 89bd
00000160: 669d 19bd 3784 6fbd f05c 85bc d10c d8bc
00000170: 1283 f53c 90f4 8ebc ae0a abbc 0124 57bc
00000180: 5384 b23c 353a 60bd fa2e 67bd 8747 c33c
00000190: a7ac 2dbd 9143 103d 2b20 2a3d 6934 5ebd
000001a0: 8538 1b3b 8483 1dbd d658 ccbc 46af fa3c
000001b0: 4a50 77bd 817f 2abd 2038 98bd 55e9 bb3c
000001c0: 7267 823c a9ac 523c 57ea 7a3c fb9f abbc
000001d0: 6b3f ba3c 0d89 113d 3f96 943c 8c4f 00bc
000001e0: adc9 28bd bf93 4b3d f5c7 423c 549b 5c3d
000001f0: 4ebf 23bd b0b6 8fbc b31a 533d 4c2c 8e3c
00000200: d69f 8c3c 29e3 303d bd42 623d 450f fabc
00000210: 3d9f 06bd adfe 813c 0d3f 1c3d ef3d aebc
00000220: 8043 f13b a84c 933c 1fcd 2a3d 221c 893a
00000230: 8f67 483d d83c 45bd d40a 543d fab2 89bc
00000240: 1788 4e3d 50cc b13b 5ad3 68bc dc97 c43c
00000250: 97df 6e3d 0c2c 1cbd 79df cf3c 49cc 333d
00000260: e012 2c3c 53f3 e839 a965 6abd f5da 393b
00000270: 3ab2 4bbc 1049 95ba 01e6 6bbd 2a0f 78bd
00000280: ddfa f8bc c2be 403d b19a a73c af1c 50bd
00000290: d5e5 1dbc 393f 82bd c0c5 fa3b 7a8a c8bc
000002a0: cc9a d6bc 04af 71bd d6a1 cbbb 9a3f 123c
000002b0: c0ad 1cbc f392 7d3c 0c8a a13a ffa8 2bbd
000002c0: 0e15 8abc cac3 b8bc 73b5 41bd 3f89 e03c
000002d0: cd3b 123c cfe3 69bd bb5e 0c3d f990 bbbc
000002e0: 026d 3c3d 378e 84bd f5fc 72bd 93e1 c0bc
000002f0: 413c 53bd b360 04bd 3a79 1cbc 5016 88bc
00000300: 93f3 d43c 654a 0d3c c20a ab3c a466 903d
00000310: 2055 9c3d 17c8 263d 49e2 06bd 38f4 32bd
00000320: 6dd6 efbc 8894 48bd e7c8 84bd d751 a33c
00000330: 6eb8 82bd aeac d6bc 942d 2cbd 81db 80bd
00000340: 7173 77bd 935c 963b 8ae9 8dbd afac 87bd
00000350: a152 82bc aca8 0ebd 0640 debc 3144 dabb
00000360: 3aea be3c d685 33bc dc7e 31bd 794b 40bc
00000370: 200c 21bd f9f3 e1bc fa5f 17bd bf56 76bd
00000380: feb0 0b3c 88fa 2dbb 666a c3bc 5bcb 29bd
00000390: 29ae 5a3c 1d71 4e3c 049b 16bd 5ecf 49bd
000003a0: a8f1 21bd a31e 2ebd 9260 87bc 9cc9 3239
000003b0: e9ae 4ebd 1a01 17bd 4478 80bd e3d0 6fbd
000003c0: abb8 1cbd d1a3 14bd 3d0d 08bd 27d5 5ebd
000003d0: 1200 fb39 f67a f03c 6c7f 89bd cd57 d83c
000003e0: bb6f 383b ef3c 183d a44a ea3b f516 fbbc
000003f0: bdf9 cfbc faa8 97bd f72a 80bd f2e3 8fbd

conv.2.bias f4 [16]
-0.023983488 -0.07008402 0.061994128 0.016516406 0.05464661 0.04432064 -0.052139618 -0.04290155
-0.014459834 0.06753916 -0.020255296 -0.0027805604 0.06298918 0.0021883931 0.009908376 0.055029415
00000000: 0579 c4bc 3688 8fbd 8eed 7d3d 6a4d 873c
00000010: 20d5 5f3d 8f89 353d 5a90 55bd 89b9 2fbd
00000020: f1e8 6cbc f951 8a3d 6fee a5bc 103a 36bb
00000030: 7900 813d 256b 0f3b be56 223c 8666 613d

fc.0.weight f4 [7, 2912]
-0.00018499712 -0.0141453 -0.0024484424 0.018133229 -0.00953654 -0.0021183281 1.045611e-05 0.011053858
0.018229293 -0.0058783707 0.0035462934 -0.005968363 -0.009956573 -0.0019285486 -0.010592124 0.01933874
0.005496829 0.016064346 0.020421574 0.025535323 0.0058868914 0.011455221 0.0033692827 0.025192792
0.027820103 0.0242689 -0.009929247 -0.0039220923 -0.009332578 0.038009293 0.0068797125 0.038647674
0.016143294 0.0101655545 0.004844242 0.023778524 0.019454233 0.00051890244 0.016585846 0.019004472
0.011285977 0.022793917 0.012511985 0.021068363 0.03228737 0.016722035 0.009747883 0.024096789
0.028141268 0.016451053 0.0014069442 0.0126491 0.037256926 0.019214084 0.007477693 0.012782693
0.014713185 0.020279702 0.02994523 0.04000345 0.027606232 0.026183955 0.017022844 -0.006008741
0.013175774 0.015614826 0.0071698823 0.015721621 0.005471251 0.00171227 0.030515091 0.01930921
0.009880648 -0.0055620694 0.016841607 0.005771541 0.0151561275 -0.004654926 -0.009154885 -0.004959851
0.015276124 -0.004979085 0.0046828683 0.014002735 0.0006677888 0.008397617 0.012149153 -0.0011415778
-0.0075097214 -0.017525118 0.0056034024 -0.021405179 -0.01826255 0.015925163 0.008740819 0.0023707561
0.017377831 0.0083829295 0.008406476 0.005952868 0.0033815498 0.017080147 0.0053961254 0.0011889066
-0.0026234332 -0.014030905 -0.009744406 0.015581014 0.012644047 0.024398778 0.014895762 0.04599349
0.028463075 0.0069238963 0.018871183 0.010146367 0.0019491868 0.005377203 -0.023930423 -0.007873148
-0.025496336 -0.006169161 -0.0020046975 0.007806015 0.021526176 0.012707667 0.0062834327 0.010992973
0.017740244 0.007652883 0.0116503555 -0.0023407163 -0.01780895 -0.007808367 0.0011680565 0.005488491
-0.008593636 0.028681174 0.03854884 0.00980273 -0.010942913 -0.009796841 -0.015927132 0.0072545386
-0.0016286008 -0.013048314 -0.02392406 -0.011536814 -0.0016849124 0.0077369325 0.020696286 0.016794175
0.022602791 0.025513157 0.012077917 0.013434829 0.0063053416 -0.011636109 0.000106026244 0.012508073
-0.012065459 -0.01753855 0.016468693 -0.0012517013 -0.008843975 0.00081971474 -0.0032962877 0.01107898
-0.006246977 -0.0040195016 -0.0029356428 -0.006105312 0.0150962155 0.015270052 -0.002023257 -0.013855904
0.0031952462 -0.013754841 0.0057533425 0.008051106 -0.026390946 -0.024582468 0.016472815 -0.010166507
0.013723801 0.0009185201 0.009402876 0.00071447366 0.0074826297 0.008939609 0.004646947 0.010195467
0.013168125 0.013108443 -0.005910896 -0.007310908 -0.0051307674 0.020502709 0.026568778 0.0036424657
0.010321294 -0.0041390467 0.009416744 0.00075159373 -0.021386763 0.0109031545 0.012246857 0.006373419
-0.012899184 0.0038520664 -0.010419172 -0.0038674825 0.014805532 0.017438494 0.0018520209 0.00039958695
-0.0053146174 -0.012249801 0.014488861 0.0020451506 0.021530746 -0.013785595 -0.002369101 -0.017489415
0.0058150976 0.02995981 0.034423392 0.006612455 0.031705573 0.02055357 -0.0072291493 -0.0046003023
-0.0012909912 0.008087419 0.006735148 0.01612269 -4.8715392e-05 0.004610694 0.030744001 0.019442096
0.009138793 0.035413165 0.0026668904 0.00012920215 -0.006051678 0.008776988 0.013643196 -0.011307214
-0.011594551 -0.015123615 -0.022042368 0.0053850166 0.007747071 0.02508165 0.01795808 0.01172976
00000000: c9fb 41b9 b0c1 67bc 0c76 20bb 238c 943c
00000010: 263f 1cbc a6d3 0abb a76c 2f37 3e1b 353c
00000020: 9955 953c 599f c0bb ee68 683b 4292 c3bb
00000030: e520 23bc 5ac7 fcba 978a 2dbc 476c 9e3c
00000040: be1e b43b 6099 833c 254b a73c 742f d13c
00000050: d3e6 c03b aeae 3b3c 2fcf 5c3b 1d61 ce3c
00000060: fce6 e33c 92cf c63c 48ae 22bc e584 80bb
00000070: abe7 18bc a2af 1b3d 366f e13b 064d 1e3d
00000080: f13e 843c 6d8d 263c 72bc 9e3b 2ecb c23c
00000090: 7c5e 9f3c f406 083a 0adf 873c 44af 9b3c
000000a0: d2e8 383c 4fba ba3c 12ff 4c3c 8f97 ac3c
000000b0: c33f 043d a6fc 883c 96b5 1f3c a166 c53c
000000c0: 8488 e63c 5cc4 863c 3769 b83a 2c3e 4f3c
000000d0: b89a 183d db66 9d3c 6f07 f53b 806e 513c
000000e0: 920f 713c 9e21 a63c b34f f53c a8da 233d
000000f0: 7726 e23c bc7f d63c 7e73 8b3c f9e4 c4bb
00000100: 34df 573c 54d5 7f3c 55f1 ea3b a1ca 803c
00000110: 2e48 b33b 3f6e e03a c9fa f93c 592e 9e3c
00000120: 71e2 213c 0542 b6bb 69f7 893c 321f bd3b
00000130: 6851 783c 5988 98bb 5ffe 15bc 3f86 a2bb
00000140: b548 7a3c 9827 a3bb bf72 993b ba6b 653c
00000150: 8c0e 2f3a 2996 093c 3e0d 473c ffa0 95ba
00000160: 1c14 f6bb d690 8fbc bf9c b73b ea59 afbc
00000170: 589b 95bc 7d75 823c a735 0f3c b05e 1b3b
00000180: f45b 8e3c 8e58 093c 51bb 093c 4710 c33b
00000190: fe9c 5d3b aaeb 8b3c fbd1 b03b 16d5 9b3a
000001a0: e8ed 2bbb e2e1 65bc 00a7 1fbc 8247 7f3c
000001b0: fa28 4f3c f2df c73c 5b0d 743c ab63 3c3d
000001c0: 652b e93c dae1 e23b bd97 9a3c f33c 263c
000001d0: db7b ff3a 4033 b03b bc09 c4bc 60fe 00bc
000001e0: b1dd d0bc ac26 cabb 3e61 03bb 9ac9 ff3b
000001f0: aa57 b03c d233 503c 41e5 cd3b df1b 343c
00000200: fd53 913c 09c5 fa3b 22e1 3e3c b466 19bb
00000210: 13e4 91bc 54dd ffbb 7919 993a cdd8 b33b
00000220: 52cc 0cbc c8f4 ea3c 63e5 1d3d a19b 203c
00000230: e749 33bc ee82 20bc 9e79 82bc 7bb7 ed3b
00000240: c676 d5ba 98c8 55bc 64fc c3bc e804 3dbc
00000250: 47d8 dcba 1886 fd3b 428b a93c f093 893c
00000260: 7d29 b93c f800 d13c 75e2 453c c21d 5c3c
00000270: 0a9d ce3b 61a5 3ebc 685a de38 a9ee 4c3c
00000280: 34ae 45bc 01ad 8fbc 5ae9 863c 2010 a4ba
00000290: 52e6 10bc 20e2 563a 8806 58bb 9c84 353c
000002a0: 71b3 ccbb 06b6 83bb ea63 40bb 120f c8bb
000002b0: 1e56 773c 3d2f 7a3c 9f98 04bb e003 63bc
000002c0: 5667 513b fc5b 61bc 8986 bc3b c9e8 033c
000002d0: d331 d8bc 2c61 c9bc fff1 863c 6c91 26bc
000002e0: cbd9 603c d7c8 703a 850e 1a3c 844b 3b3a
000002f0: d930 f53b 7077 123c 6b45 983b e30a 273c
00000300: 1fbf 573c cbc4 563c 31b0 c1bb 5790 efbb
00000310: ff1f a8bb 4cf5 a73c c4a6 d93c 6fb6 6e3b
00000320: a51a 293c d7a0 87bb b048 1a3c 9a06 453a
00000330: 4b33 afbc 25a3 323c 0ba7 483c 1dd8 d03b
00000340: 1957 53bc f372 7c3b 2db5 2abc 9775 7dbb
00000350: e792 723c 2cdb 8e3c 82bf f23a a77f d139
00000360: 3e26 aebb 64b3 48bc b062 6d3c ef07 063b
00000370: 3f61 b03c fadc 61bc eb42 1bbb f645 8fbc
00000380: 938c be3b 476e f53c 8bff 0c3d 4bad d83b
00000390: b4dd 013d f65f a83c 80e2 ecbb 22be 96bb
000003a0: 7a36 a9ba 1881 043c 84b2 dc3b bb13 843c
000003b0: c153 4cb8 4e15 973b d8da fb3c 0845 9f3c
000003c0: e0ba 153c 650d 113d ffc6 2e3b 707a 0739
000003d0: 284d c6bb 5bcd 0f3c b687 5f3c e541 39bc
000003e0: 12f7 3dbc 0ac9 77bc 3292 b4bc cb74 b03b
000003f0: 24db fd3b 0878 cd3c d31c 933c 2e2e 403c

fc.0.bias f4 [7]
-0.0064241174 0.0027557968 0.017415788 0.011124438 0.014539824 -0.012300518 -0.020318931
00000000: 6781 d2bb 999a 343b 8eab 8e3c 4643 363c
00000010: 7138 6e3c 1d88 49bc e373 a6bc
