research/puyo-classifier-feb8-2021.pt (torch, 147407 bytes, 4 tensors)

fc.0.weight f4 [50, 720]
0	0x3bcb98c0	0.0062132776
1	0xbd3f155f	-0.04665124
2	0xbc33d4c3	-0.010976019
3	0xbbcecb8c	-0.006310886
4	0xbcadc20d	-0.021210695
5	0x3cb00420	0.021486342
6	0x3c9f16e2	0.019420091
7	0xbd0bd3a1	-0.034137372
8	0x3b636e8c	0.0034703342
9	0xbcd4fb0a	-0.025998611
10	0xbd742a56	-0.059610687
11	0xbdca1efa	-0.098691896
12	0xbd8aebda	-0.06783266
13	0xbd644244	-0.05572726
14	0xbd54b8b3	-0.051933955
15	0xbbb623c2	-0.005558462
16	0xbd4a43b0	-0.049380958
17	0xbd8170d1	-0.06320346
18	0x3b427690	0.002967272
19	0x3c65f6a0	0.014035851
20	0xbc8ab771	-0.016933175
21	0xbb368975	-0.0027852927
22	0xbd0a79ca	-0.033807553
23	0xbd83a9b0	-0.0642885
24	0xbd14c480	-0.03632021
25	0xbd3b6127	-0.04574695
26	0xbded05cc	-0.11573371
27	0xbde218d9	-0.110398956
28	0xbdc2f015	-0.09518448
29	0xbd8a14b9	-0.06742234
30	0xbd9ad491	-0.07560075
31	0xbd3033fe	-0.043018334
32	0xbd007be4	-0.03136815
33	0xba8211bb	-0.0009923497
34	0x3da1f371	0.07907761
35	0x3c839ca1	0.016065897
36	0xbc878900	-0.016544819
37	0xbc9bdc25	-0.019025872
38	0xbd00fb29	-0.031489525
39	0xbdbf8e89	-0.09353358
40	0xbd356600	-0.044286728
41	0xbd6685ea	-0.056280054
42	0xbdb95186	-0.090487525
43	0xbddab80c	-0.106796354
44	0xbccd6498	-0.02507238
45	0xbd7a9c1e	-0.06118404
46	0xbd8df583	-0.06931593
47	0xbcc32610	-0.02382186
48	0x3bd1860a	0.0063941525
49	0x3bf1e953	0.0073825507
50	0x3d06b983	0.03289176
51	0x3d2d38f2	0.042290635
52	0xbd21ceb5	-0.03950377
53	0xbda9f86f	-0.08299338
54	0xbdc7b81e	-0.097519144
55	0xbdded33b	-0.10880133
56	0xbe009214	-0.12555724
57	0xbe0e81bb	-0.13916676
58	0xbdcaaa95	-0.09895817
59	0xbe08457d	-0.13307758
60	0xbd91c51f	-0.07117676
61	0xbd31462a	-0.043279804
62	0xbd3f8f11	-0.046767298
63	0xbc9a319b	-0.018822482
64	0xbca3faf1	-0.02001712
65	0xbc8f8e3b	-0.017523875
66	0x3ce4383e	0.02785885
67	0x3cf07c2a	0.029356081
68	0xbdb8ba10	-0.090198636
69	0xbd9a0272	-0.07519998
70	0xbd876e79	-0.06612868
71	0xbdb68459	-0.08911962
72	0xbdfcfb12	-0.12352575
73	0xbde007f7	-0.10939019
74	0xbdc27590	-0.094950795
75	0xbe2805c8	-0.16408455
76	0xbd7c40db	-0.06158529
77	0xbd48d898	-0.049034685
78	0xbdb31947	-0.08745056
79	0xbd0e5018	-0.034744352
80	0x3b8a311d	0.0042172805
81	0xbca634c5	-0.020288834
82	0xbb1e13af	-0.002412062
83	0xbd9db072	-0.0769967
84	0xbe11e900	-0.14249039
85	0xbd3a3c4c	-0.04546766
86	0xbe1a7799	-0.15084685
87	0xbe40dc9a	-0.18834153
88	0xbe1f9c6e	-0.15587017
89	0xbd940999	-0.07228393
90	0xbd206a46	-0.03916385
91	0xbdc58869	-0.09645159
92	0xbdbf5050	-0.0934149
93	0xbd6bdb7e	-0.05758237
94	0xbc21160d	-0.0098319175
95	0xbd82cb48	-0.06386429
96	0xbcf0fe39	-0.029418098
97	0xbbe94f3c	-0.007120041
98	0x3c393181	0.011303307
99	0xbd809165	-0.06277732
100	0xbd584b8e	-0.05280643
101	0xbcddc482	-0.027071241
102	0xbe1f2179	-0.15540113
103	0xbe22d192	-0.15900257
104	0xbe1ed0b7	-0.15509306
105	0xbdce96d6	-0.100873634
106	0xbd2f2539	-0.042760108
107	0xbdbaf815	-0.09129349
108	0xbe1591f9	-0.14606465
109	0xbda6ac8a	-0.08138378
110	0xbda33219	-0.0796854
111	0xbd8660f8	-0.06561464
112	0xbcbf1266	-0.023324203
113	0x3d0b4541	0.034001593
114	0x3c3f8cc7	0.011691279
115	0xbdbd81ac	-0.092532486
116	0xbcaac00a	-0.020843524
117	0x3caa8c2a	0.020818789
118	0x3b0dd3c2	0.002164111
119	0xbd2dbb3e	-0.042414896
120	0xbd211992	-0.039331026
121	0xbd95a2e9	-0.07306463
122	0xbd7de8a3	-0.061989438
123	0xbddafa76	-0.10692303
124	0xbdc37df3	-0.09545507
125	0xbc26455b	-0.010148372
126	0xbcf0ffc5	-0.029418835
127	0xbcde11d3	-0.027108109
128	0xbd6d8776	-0.057990514
129	0xbc87dd76	-0.016585093
130	0xbdea6945	-0.1144586
131	0xbdf6988c	-0.12040815
132	0xbd9ddb73	-0.07707872
133	0xbd1b7ab6	-0.037958823
134	0x3d1f3984	0.03887321
135	0x3d84e310	0.06488621
136	0x3dd27aeb	0.10277351
137	0xbd5bfcd9	-0.05370793
138	0xbd8f2a51	-0.06990493
139	0xbdb03fd8	-0.08605927
140	0xbd016850	-0.03159362
141	0xbc53e6b0	-0.012933418
142	0x3b19b30c	0.0023452668
143	0xbd2c24f8	-0.042027444
144	0xbd8983d3	-0.067145966
145	0xbdd29651	-0.10282577
146	0xbe1c36f0	-0.15255332
147	0xbde7bcfc	-0.11315343
148	0xbc5b9831	-0.0134029845
149	0x3da5f952	0.08104195
150	0x3e203c2a	0.15647951
151	0x3e4e6cd3	0.201587
152	0x3e2e870a	0.17043701
153	0x3bb806fa	0.005616066
154	0xbd80f348	-0.06296402
155	0xbdec5899	-0.11540336
156	0xbdc6e058	-0.09710759
157	0xbda54924	-0.08070591
158	0xbd8e084f	-0.069351785
159	0xbda23844	-0.07920888
160	0xbdecfaef	-0.11571299
161	0xbe2305b7	-0.15920149
162	0xbe77df62	-0.24206308
163	0xbe27c32f	-0.1638305
164	0xbd892722	-0.06696917
165	0x3d7a54d7	0.061116066
166	0x3ddbf74e	0.10740529
167	0x3e2cbd75	0.16869147
168	0x3e169aec	0.14707536
169	0x3d9b4447	0.07581382
170	0x3c22c3c3	0.009934369
171	0xbdd48b9e	-0.10378192
172	0xbdb7a2c0	-0.08966589
173	0xbda51e3c	-0.080624074
174	0xbd371096	-0.044693552
175	0xbd805451	-0.06266082
176	0xbdd64f9f	-0.10464405
177	0xbd879cc2	-0.06621696
178	0xbdc5cd32	-0.096582785
179	0xbda2325b	-0.07919761
180	0xbcf1390f	-0.029446153
181	0xbc8667c4	-0.016406901
182	0xbcbec974	-0.02328942
183	0xbbd79a4a	-0.006579672
184	0x3cc127eb	0.023578605
185	0xbb89d439	-0.004206207
186	0xbd99f819	-0.07518024
187	0xbe2dfc0f	-0.16990684
188	0xbe3551e7	-0.17707025
189	0xbe00c320	-0.12574434
190	0xbde23ab9	-0.11046357
191	0xbd9ff8f6	-0.078111574
192	0xbda4d561	-0.08048511
193	0xbd8b6aa7	-0.06807452
194	0xbdad0cb8	-0.084496915
195	0xbe04d97a	-0.12973586
196	0xbdb4dfb6	-0.08831732
197	0xbd92d5c7	-0.07169681
198	0xbd7b231b	-0.061312776
199	0xbd166f3d	-0.03672718
200	0xbd8303c4	-0.063972026
201	0xbd6f690a	-0.058449782
202	0xbe0565f1	-0.13027169
203	0xbe01eb67	-0.12687455
204	0xbdf6c7bd	-0.12049816
205	0xbdbb5887	-0.091477446
206	0xbdd1d73e	-0.10246132
207	0xbd9dfa8f	-0.07713806
208	0xbd5f5a86	-0.05452969
209	0xbdac0432	-0.08399238
210	0x3cda69e2	0.026661817
211	0xbd86c1f5	-0.06579963
212	0xbdbb29bc	-0.091388196
213	0xbd339f5d	-0.043853153
214	0xbe06fe3e	-0.13182923
215	0xbdefe17f	-0.11712932
216	0xbd9ce3db	-0.076606475
217	0xbdecbaa5	-0.11559037
218	0xbe31cb2e	-0.17362663
219	0xbe3275e9	-0.17427792
220	0xbe062c96	-0.13102946
221	0xbd8ca647	-0.068676524
222	0xbdbea944	-0.093096286
223	0xbd6b3398	-0.05742225
224	0x3c712038	0.014717154
225	0xbd683aae	-0.056696586
226	0xbbdbd817	-0.0067091095
227	0xbdad6e08	-0.084682524
228	0xbdc7236b	-0.09723552
229	0xbdcd4437	-0.100227766
230	0xbe03f7c1	-0.1288748
231	0xbe0b16cf	-0.1358292
232	0xbe1f4434	-0.15553361
233	0xbe1e4841	-0.1545725
234	0xbe0ad6e7	-0.13558541
235	0xbdfe1216	-0.12405793
236	0xbda8c8fc	-0.0824146
237	0xbc9f9382	-0.019479517
238	0xbd14fc41	-0.03637338
239	0x3c8739c4	0.016507037
240	0xbcdfd46d	-0.027322972
241	0xbd425d50	-0.04745227
242	0xbcc980f6	-0.024597626
243	0x3c561b6d	0.013068062
244	0x3d5cc9e0	0.05390346
245	0x3d357477	0.044300523
246	0x3d913068	0.07089311
247	0x3d89390c	0.06700334
248	0x3dbcaa84	0.09212211
249	0x3db64f1d	0.089018084
250	0x3d8c36ac	0.06846365
251	0x3cc74e05	0.024329195
252	0xbcc207d3	-0.023685372
253	0xbdc1e5bf	-0.09467649
254	0xbdd765a6	-0.10517435
255	0xbcd5a29e	-0.026078518

fc.0.bias f4 [50]
0	0xbe6358be	-0.22201821
1	0xbe6e1fd0	-0.23254323
2	0x3d91ff37	0.071287565
3	0xbe9a97f3	-0.30194053
4	0xbe837e71	-0.25682405
5	0xbe210aa7	-0.1572672
6	0x3e985340	0.29751015
7	0x3e74a574	0.2389124
8	0xbdd03dc4	-0.10168031
9	0xbe2075e4	-0.15669972
10	0xbdbad0ac	-0.09121832
11	0x3e797e60	0.24364614
12	0xbe972b6b	-0.29525313
13	0xbea0f89b	-0.3143967
14	0x3d33512c	0.043778583
15	0x3d15d7c5	0.036582727
16	0x3d68fe83	0.056883346
17	0xbdc84ce1	-0.097802885
18	0x3e4eb99a	0.20187989
19	0xbb051b7e	-0.0020310576
20	0x3e3576de	0.17721125
21	0x3e8dd5ab	0.27702078
22	0xbe49a851	-0.19693114
23	0xbefd8972	-0.49518925
24	0xbe386af6	-0.18009552
25	0xbe07b602	-0.13253024
26	0x3ecab36d	0.39590016
27	0x3e4a1c27	0.19737302
28	0x3dca6bf9	0.098838754
29	0xbd0f79af	-0.035028156
30	0x3d8be059	0.068299
31	0xba412923	-0.00073684956
32	0xbe25b47b	-0.16182129
33	0x3e880901	0.2656937
34	0xbd8183bd	-0.06323955
35	0xbdea74b7	-0.11448043
36	0xbdad9f28	-0.08477622
37	0x3e924b8f	0.28573272
38	0x3d79e567	0.06100979
39	0xbd2283f8	-0.039676636
40	0x3ce68f3a	0.028144468
41	0xbe5de6a4	-0.21670014
42	0xbc86e474	-0.016466357
43	0x3cce5de0	0.025191247
44	0x3c84e596	0.016222756
45	0x3ea9ca64	0.33162224
46	0x3e4cf169	0.20013966
47	0xbe051868	-0.12997591
48	0x3cbca670	0.023028582
49	0xbde8ff33	-0.113768004

fc.2.weight f4 [7, 50]
0	0x3bad664e	0.0052917367
1	0x3d8e93ff	0.06961822
2	0xbd034f5e	-0.032058112
3	0xbe157bd4	-0.14598018
4	0x3e43ba40	0.19114017
5	0xbd46fb5e	-0.048579566
6	0xbf0c0089	-0.54688317
7	0xbe552505	-0.20814903
8	0x3dbfbbef	0.09362017
9	0x3d17531e	0.0369445
10	0x3e53af3f	0.2067232
11	0xbdf152de	-0.11783384
12	0x3e2c1d60	0.1680808
13	0xbe0efa0d	-0.13962574
14	0x3f37f57a	0.7185894
15	0x3dd8ab4f	0.105795495
16	0xbeab2ce8	-0.33432698
17	0x3ef1f764	0.47259057
18	0xbe686667	-0.22695313
19	0xbe766aef	-0.2406423
20	0xbd1eb018	-0.038742155
21	0x3e31b945	0.17355831
22	0xbc6ee0f0	-0.0145799965
23	0x3e804681	0.2505379
24	0x3e1ba35d	0.15199037
25	0x3e56bcaa	0.20970407
26	0xbe974d25	-0.29551044
27	0xbda604bb	-0.08106371
28	0x3e5acbaa	0.21366754
29	0x3e756c33	0.23967056
30	0x3e897f73	0.2685505
31	0x3eaa4eba	0.3326319
32	0x3e625d9f	0.22106026
33	0xbebeb635	-0.37248388
34	0x3e37c0a1	0.17944576
35	0x3ea80f77	0.328243
36	0xbdc2829e	-0.094975695
37	0x3d5323f4	0.05154796
38	0xbe91177c	-0.2833823
39	0x3e312bfb	0.17301933
40	0xbd7162e5	-0.058932204
41	0x3e767271	0.24067093
42	0xbe5fd697	-0.21859203
43	0x3e47709c	0.19476551
44	0xbe128098	-0.14306867
45	0xbef93e02	-0.4868012
46	0x3dc7cabb	0.09755465
47	0x3d96cd92	0.07363428
48	0xbb0537d1	-0.0020327459
49	0x3e387272	0.18012407
50	0xbeabbe96	-0.33543843
51	0xbe74455b	-0.23854582
52	0x3e039557	0.12849937
53	0xbef0b2c4	-0.47011387
54	0xbe559628	-0.20858061
55	0xbe6c3e55	-0.23070653
56	0x3f5be8b7	0.8590197
57	0x3e590a60	0.21195364
58	0x3c90da46	0.017682206
59	0xbccc1341	-0.024911525
60	0xbca477d1	-0.020076664
61	0x3e2bfd7e	0.16795918
62	0xbd9f55c0	-0.077800274
63	0xbe86caf7	-0.26326725
64	0xbe304fe9	-0.17217983
65	0x3de413fc	0.11136624
66	0x3d06cd34	0.03291054
67	0xbf114532	-0.5674621
68	0x3e63e304	0.22254568
69	0x3e55678d	0.20840283
70	0x3e16f73b	0.14742748
71	0x3e549792	0.20760944
72	0xbe2989dc	-0.16556495
73	0xbf3dd19a	-0.7414795
74	0xbc2f1f6e	-0.010688646
75	0xbd67db9c	-0.05660592
76	0x3f15316b	0.5827853
77	0x3e790e85	0.24321945
78	0x3e5e4026	0.21704158
79	0xbe4b1324	-0.1983152
80	0x3e23a64a	0.15981403
81	0xbdf7f41d	-0.12107108
82	0xbefbda94	-0.491902
83	0x3e791eb4	0.24328119
84	0xbec56b74	-0.38558543
85	0xbe6ab9d0	-0.22922444
86	0xbd5e8d6a	-0.05433408
87	0x3e3736e2	0.1789203
88	0x3e2bd00f	0.16778587
89	0xbe96a4a7	-0.29422495
90	0x3e13cc1e	0.14433333
91	0xbda40ac5	-0.080098666
92	0xbe19d311	-0.15021922
93	0x3dd37eee	0.10326944
94	0x3e8fde7a	0.28099424
95	0x3e8f643d	0.28006163
96	0x3e231a07	0.15927897
97	0xbedd07bf	-0.43169972
98	0x3cfc46ab	0.030795416
99	0xbd71e57a	-0.059056737
100	0xbeb01633	-0.34391937
101	0xbdd4cdc4	-0.10390809
102	0x3e94f2d7	0.29091522
103	0xbece6acb	-0.40315852
104	0x3e3d42f6	0.18482575
105	0xbe83a8d2	-0.25714737
106	0xbe05535d	-0.13020082
107	0x3d9cfbca	0.076652125
108	0xbe245fb0	-0.16052127
109	0x3e15adb5	0.14617045
110	0xbe128fcb	-0.14312665
111	0x3e305841	0.17221166
112	0xbd81db78	-0.063406885
113	0x3e8f328b	0.2796825
114	0xbe86a501	-0.26297763
115	0x3e0b4706	0.13601312
116	0xbeb0ae5d	-0.3450803
117	0xbef134c6	-0.47110575
118	0x3e5a6645	0.21328075
119	0x3e53e846	0.20694074
120	0x3e2f5a91	0.17124392
121	0x3c2f4500	0.010697603
122	0x3cff5e96	0.031173032
123	0x3d23b24d	0.039964963
124	0xbe423a73	-0.18967609
125	0xbde23532	-0.110453025
126	0xbd0958f7	-0.03353211
127	0x3e47ce97	0.19512402
128	0xbe021322	-0.12702611
129	0x3d97cd9a	0.07412262
130	0xbdf1d97e	-0.118090615
131	0xbe4805e4	-0.19533497
132	0x3e0d6f82	0.13812068
133	0xbdcc628a	-0.09979732
134	0x3e0656e5	0.13119085
135	0xbe0d09eb	-0.13773315
136	0x3e18e61e	0.14931533
137	0xbe43c3b6	-0.19117627
138	0x3ea490bd	0.32141677
139	0xbe9045f9	-0.28178385
140	0xbe1966ff	-0.14980696
141	0xbf03e13c	-0.51515555
142	0x3eafb1af	0.3431525
143	0xbd5dfc2c	-0.054195568
144	0x3dcf9729	0.101362534
145	0xbe5e7496	-0.21724162
146	0x3c55c01c	0.013046291
147	0x3e2dab46	0.16959867
148	0xbe8178af	-0.25287387
149	0xbe9d74ac	-0.30753076
150	0x3e660ad0	0.22465062
151	0x3e3c8e0a	0.18413559
152	0x3e278ce3	0.16362338
153	0x3f3cdc1a	0.7377335
154	0x3cdfc157	0.027313871
155	0x3d1a2638	0.037634104
156	0xbe33189c	-0.17489856
157	0x3dc842db	0.09778377
158	0x3c7cc075	0.015426745
159	0xbeb7fcf9	-0.3593519
160	0x3db32d0e	0.08748828
161	0xbe764f4c	-0.24053687
162	0x3e52e350	0.20594525
163	0x3e4bd1c0	0.19904232
164	0xbe49c06d	-0.19702311
165	0xb9abeeb9	-0.00032793524
166	0x3d16aa08	0.03678325
167	0xbe8983bb	-0.26858315
168	0xbda46c74	-0.08028498
169	0xbe0cfb01	-0.13767625
170	0x3e161fc6	0.14660558
171	0xbe1d97f1	-0.15389992
172	0x3d0ac316	0.033877455
173	0x3ea46a1e	0.3211221
174	0x3dede4f9	0.11615939
175	0x3db849c1	0.089984424
176	0xbea5699d	-0.3230714
177	0xbe8df941	-0.27729228
178	0xbe696c1a	-0.22795144
179	0x3d4afb9d	0.049556363
180	0xbea1262b	-0.31474432
181	0xbec228ea	-0.3792184
182	0xbdd7de68	-0.105404675
183	0xbe16acdb	-0.14714377
184	0xbdcb5a81	-0.099293716
185	0xbe974c6b	-0.2955049
186	0xbe570673	-0.20998554
187	0xbdcff0fa	-0.101533845
188	0xbe854dad	-0.26035824
189	0xbdd268ab	-0.1027387
190	0x3ef51a36	0.4787156
191	0x3daf82ff	0.085699074
192	0xbf04de50	-0.5190172
193	0xbe6d740a	-0.23188797
194	0x3c60c136	0.01371794
195	0x3d953020	0.0728457
196	0xbe180f58	-0.14849603
197	0xbd6dbc66	-0.058041
198	0x3e24a226	0.1607748
199	0x3e33786d	0.17526408
200	0xbf13d713	-0.5775005
201	0xbea9b664	-0.33146966
202	0x3cd29277	0.025704606
203	0xbe4ac0a7	-0.19800054
204	0xbe0f9b8c	-0.1402418
205	0x3e6ba366	0.2301155
206	0x3daefa65	0.08543853
207	0x3e7d86c2	0.24758437
208	0x3e103920	0.14084291
209	0xbef15dba	-0.4714182
210	0xbd1599f6	-0.03652378
211	0xbe187545	-0.14888485
212	0xbd65427d	-0.05597161
213	0xbebcf7f5	-0.36907926
214	0xbe91744c	-0.2840904
215	0xbc0fac55	-0.0087691145
216	0x3e6e5148	0.23273194
217	0x3e8817a9	0.2658055
218	0xbe57172f	-0.21004938
219	0x3c6010ae	0.013675852
220	0x3c819b52	0.015821133
221	0xbe18746c	-0.14888161
222	0xbf09e9c2	-0.5387231
223	0xbe895395	-0.2682158
224	0xbe2cee16	-0.16887698
225	0x3d856553	0.06513467
226	0xbd6caf15	-0.05778416
227	0xbe2da308	-0.16956723
228	0xbe948f64	-0.29015648
229	0xbe8ed04f	-0.27893302
230	0xbec614cb	-0.3868774
231	0x3e46961d	0.19393201
232	0x3d9a3cac	0.075311035
233	0x3e919743	0.28435716
234	0xbece7053	-0.40320072
235	0xbe434b55	-0.19071706
236	0xbe985b01	-0.2975693
237	0xbe215d12	-0.1575816
238	0xbc297036	-0.010341695
239	0xbe0dc609	-0.13845076
240	0xbf1a9e23	-0.6039755
241	0x3c696349	0.014244863
242	0x3e6d8fcf	0.2319939
243	0xbe4cabee	-0.19987461
244	0xbd5c2e60	-0.053755164
245	0x3e99a706	0.3001024
246	0xbd4933e5	-0.049121756
247	0xbe70d4c4	-0.23518664
248	0x3e32fcf7	0.17479311
249	0xbe481e0e	-0.19542715
250	0x3de3edb4	0.11129323
251	0x3e40edb3	0.18840675
252	0x3e37b8d9	0.17941608
253	0xbeb2d3d9	-0.34927252
254	0x3e1e0257	0.1543058
255	0xbe224525	-0.15846689

fc.2.bias f4 [7]
0	0xbe264845	-0.16238506
1	0x3eecaf91	0.46227697
2	0x3c8cd4c3	0.017191296
3	0xbe068880	-0.13138008
4	0xbdbc3dac	-0.091914505
5	0xbe171f24	-0.14757973
6	0x3ded0ab2	0.115743056
